…
I1013 01:06:38.771699 50073 net.cpp:322] The NetState phase (0) differed from the phase (1) specified by a rule in layer mnist
I1013 01:06:38.771719 50073 net.cpp:322] The NetState phase (0) differed from the phase (1) specified by a rule in layer accuracy
I1013 01:06:38.771809 50073 net.cpp:58] Initializing net from parameters: 
name: "LeNet"
state {
  phase: TRAIN
  level: 0
  stage: ""
}
layer {
  name: "mnist"
  type: "Data"
  top: "data"
  top: "label"
  include {
    phase: TRAIN
  }
  transform_param {
    scale: 0.00390625
  }
  data_param {
    source: "examples/mnist/mnist_train_lmdb"
    batch_size: 64
    backend: LMDB
  }
}
layer {
  name: "conv1"
  type: "Convolution"
  bottom: "data"
  top: "conv1"
  param {
    lr_mult: 1
  }
  param {
    lr_mult: 2
  }
  convolution_param {
    num_output: 20
    kernel_size: 5
    stride: 1
    weight_filler {
      type: "xavier"
    }
    bias_filler {
      type: "constant"
    }
  }
}
layer {
  name: "pool1"
  type: "Pooling"
  bottom: "conv1"
  top: "pool1"
  pooling_param {
    pool: MAX
    kernel_size: 2
    stride: 2
  }
}
layer {
  name: "conv2"
  type: "Convolution"
  bottom: "pool1"
  top: "conv2"
  param {
    lr_mult: 1
  }
  param {
    lr_mult: 2
  }
  convolution_param {
    num_output: 50
    kernel_size: 5
    stride: 1
    weight_filler {
      type: "xavier"
    }
    bias_filler {
      type: "constant"
    }
  }
}
layer {
  name: "pool2"
  type: "Pooling"
  bottom: "conv2"
  top: "pool2"
  pooling_param {
    pool: MAX
    kernel_size: 2
    stride: 2
  }
}
layer {
  name: "ip1"
  type: "InnerProduct"
  bottom: "pool2"
  top: "ip1"
  param {
    lr_mult: 1
  }
  param {
    lr_mult: 2
  }
  inner_product_param {
    num_output: 500
    weight_filler {
      type: "xavier"
    }
    bias_filler {
      type: "constant"
    }
  }
}
layer {
  name: "relu1"
  type: "ReLU"
  bottom: "ip1"
  top: "ip1"
}
layer {
  name: "ip2"
  type: "InnerProduct"
  bottom: "ip1"
  top: "ip2"
  param {
    lr_mult: 1
  }
  param {
    lr_mult: 2
  }
  inner_product_param {
    num_output: 10
    weight_filler {
      type: "xavier"
    }
    bias_filler {
      type: "constant"
    }
  }
}
layer {
  name: "loss"
  type: "SoftmaxWithLoss"
  bottom: "ip2"
  bottom: "label"
  top: "loss"
}
I1013 01:06:38.771891 50073 layer_factory.hpp:77] Creating layer mnist
I1013 01:06:38.772507 50073 net.cpp:100] Creating Layer mnist
I1013 01:06:38.772529 50073 net.cpp:408] mnist -> data
I1013 01:06:38.772557 50073 net.cpp:408] mnist -> label
I1013 01:06:38.772707 50074 db_lmdb.cpp:35] Opened lmdb examples/mnist/mnist_train_lmdb
I1013 01:06:38.772881 50073 data_layer.cpp:41] output data size: 64,1,28,28
I1013 01:06:38.773250 50073 net.cpp:150] Setting up mnist
I1013 01:06:38.773268 50073 net.cpp:157] Top shape: 64 1 28 28 (50176)
I1013 01:06:38.773274 50073 net.cpp:157] Top shape: 64 (64)
I1013 01:06:38.773277 50073 net.cpp:165] Memory required for data: 200960
I1013 01:06:38.773288 50073 layer_factory.hpp:77] Creating layer conv1
I1013 01:06:38.773308 50073 net.cpp:100] Creating Layer conv1
I1013 01:06:38.773315 50073 net.cpp:434] conv1 <- data
I1013 01:06:38.773329 50073 net.cpp:408] conv1 -> conv1
I1013 01:06:38.773397 50073 net.cpp:150] Setting up conv1
I1013 01:06:38.773422 50073 net.cpp:157] Top shape: 64 20 24 24 (737280)
I1013 01:06:38.773427 50073 net.cpp:165] Memory required for data: 3150080
I1013 01:06:38.773439 50073 layer_factory.hpp:77] Creating layer pool1
I1013 01:06:38.773447 50073 net.cpp:100] Creating Layer pool1
I1013 01:06:38.773457 50073 net.cpp:434] pool1 <- conv1
I1013 01:06:38.773468 50073 net.cpp:408] pool1 -> pool1
I1013 01:06:38.773488 50073 net.cpp:150] Setting up pool1
I1013 01:06:38.773494 50073 net.cpp:157] Top shape: 64 20 12 12 (184320)
I1013 01:06:38.773497 50073 net.cpp:165] Memory required for data: 3887360
I1013 01:06:38.773500 50073 layer_factory.hpp:77] Creating layer conv2
I1013 01:06:38.773507 50073 net.cpp:100] Creating Layer conv2
I1013 01:06:38.773526 50073 net.cpp:434] conv2 <- pool1
I1013 01:06:38.773532 50073 net.cpp:408] conv2 -> conv2
I1013 01:06:38.773684 50073 net.cpp:150] Setting up conv2
I1013 01:06:38.773692 50073 net.cpp:157] Top shape: 64 50 8 8 (204800)
I1013 01:06:38.773695 50073 net.cpp:165] Memory required for data: 4706560
I1013 01:06:38.773702 50073 layer_factory.hpp:77] Creating layer pool2
I1013 01:06:38.773708 50073 net.cpp:100] Creating Layer pool2
I1013 01:06:38.773712 50073 net.cpp:434] pool2 <- conv2
I1013 01:06:38.773716 50073 net.cpp:408] pool2 -> pool2
I1013 01:06:38.773723 50073 net.cpp:150] Setting up pool2
I1013 01:06:38.773727 50073 net.cpp:157] Top shape: 64 50 4 4 (51200)
I1013 01:06:38.773739 50073 net.cpp:165] Memory required for data: 4911360
I1013 01:06:38.773742 50073 layer_factory.hpp:77] Creating layer ip1
I1013 01:06:38.773751 50073 net.cpp:100] Creating Layer ip1
I1013 01:06:38.773754 50073 net.cpp:434] ip1 <- pool2
I1013 01:06:38.773759 50073 net.cpp:408] ip1 -> ip1
I1013 01:06:38.775692 50073 net.cpp:150] Setting up ip1
I1013 01:06:38.775707 50073 net.cpp:157] Top shape: 64 500 (32000)
I1013 01:06:38.775709 50073 net.cpp:165] Memory required for data: 5039360
I1013 01:06:38.775717 50073 layer_factory.hpp:77] Creating layer relu1
I1013 01:06:38.775724 50073 net.cpp:100] Creating Layer relu1
I1013 01:06:38.775727 50073 net.cpp:434] relu1 <- ip1
I1013 01:06:38.775732 50073 net.cpp:395] relu1 -> ip1 (in-place)
I1013 01:06:38.775738 50073 net.cpp:150] Setting up relu1
I1013 01:06:38.775741 50073 net.cpp:157] Top shape: 64 500 (32000)
I1013 01:06:38.775744 50073 net.cpp:165] Memory required for data: 5167360
I1013 01:06:38.775748 50073 layer_factory.hpp:77] Creating layer ip2
I1013 01:06:38.775753 50073 net.cpp:100] Creating Layer ip2
I1013 01:06:38.775755 50073 net.cpp:434] ip2 <- ip1
I1013 01:06:38.775760 50073 net.cpp:408] ip2 -> ip2
I1013 01:06:38.775794 50073 net.cpp:150] Setting up ip2
I1013 01:06:38.775800 50073 net.cpp:157] Top shape: 64 10 (640)
I1013 01:06:38.775802 50073 net.cpp:165] Memory required for data: 5169920
I1013 01:06:38.775807 50073 layer_factory.hpp:77] Creating layer loss
I1013 01:06:38.775813 50073 net.cpp:100] Creating Layer loss
I1013 01:06:38.775816 50073 net.cpp:434] loss <- ip2
I1013 01:06:38.775820 50073 net.cpp:434] loss <- label
I1013 01:06:38.775825 50073 net.cpp:408] loss -> loss
I1013 01:06:38.775835 50073 layer_factory.hpp:77] Creating layer loss
…
I1013 01:06:38.776139 50073 solver.cpp:181] Creating test net (#0) specified by net file: examples/mnist/lenet_train_test.prototxt
I1013 01:06:38.776163 50073 net.cpp:322] The NetState phase (1) differed from the phase (0) specified by a rule in layer mnist
I1013 01:06:38.776232 50073 net.cpp:58] Initializing net from parameters: 
name: "LeNet"
state {
  phase: TEST
}
layer {
  name: "mnist"
  type: "Data"
  top: "data"
  top: "label"
  include {
    phase: TEST
  }
  transform_param {
    scale: 0.00390625
  }
  data_param {
    source: "examples/mnist/mnist_test_lmdb"
    batch_size: 100
    backend: LMDB
  }
}
layer {
  name: "conv1"
  type: "Convolution"
  bottom: "data"
  top: "conv1"
  param {
    lr_mult: 1
  }
  param {
    lr_mult: 2
  }
  convolution_param {
    num_output: 20
    kernel_size: 5
    stride: 1
    weight_filler {
      type: "xavier"
    }
    bias_filler {
      type: "constant"
    }
  }
}
layer {
  name: "pool1"
  type: "Pooling"
  bottom: "conv1"
  top: "pool1"
  pooling_param {
    pool: MAX
    kernel_size: 2
    stride: 2
  }
}
layer {
  name: "conv2"
  type: "Convolution"
  bottom: "pool1"
  top: "conv2"
  param {
    lr_mult: 1
  }
  param {
    lr_mult: 2
  }
  convolution_param {
    num_output: 50
    kernel_size: 5
    stride: 1
    weight_filler {
      type: "xavier"
    }
    bias_filler {
      type: "constant"
    }
  }
}
layer {
  name: "pool2"
  type: "Pooling"
  bottom: "conv2"
  top: "pool2"
  pooling_param {
    pool: MAX
    kernel_size: 2
    stride: 2
  }
}
layer {
  name: "ip1"
  type: "InnerProduct"
  bottom: "pool2"
  top: "ip1"
  param {
    lr_mult: 1
  }
  param {
    lr_mult: 2
  }
  inner_product_param {
    num_output: 500
    weight_filler {
      type: "xavier"
    }
    bias_filler {
      type: "constant"
    }
  }
}
layer {
  name: "relu1"
  type: "ReLU"
  bottom: "ip1"
  top: "ip1"
}
layer {
  name: "ip2"
  type: "InnerProduct"
  bottom: "ip1"
  top: "ip2"
  param {
    lr_mult: 1
  }
  param {
    lr_mult: 2
  }
  inner_product_param {
    num_output: 10
    weight_filler {
      type: "xavier"
    }
    bias_filler {
      type: "constant"
    }
  }
}
layer {
  name: "accuracy"
  type: "Accuracy"
  bottom: "ip2"
  bottom: "label"
  top: "accuracy"
  include {
    phase: TEST
  }
}
layer {
  name: "loss"
  type: "SoftmaxWithLoss"
  bottom: "ip2"
  bottom: "label"
  top: "loss"
}
I1013 01:06:38.776279 50073 layer_factory.hpp:77] Creating layer mnist
I1013 01:06:38.776365 50073 net.cpp:100] Creating Layer mnist
I1013 01:06:38.776372 50073 net.cpp:408] mnist -> data
I1013 01:06:38.776379 50073 net.cpp:408] mnist -> label
I1013 01:06:38.776651 50076 db_lmdb.cpp:35] Opened lmdb examples/mnist/mnist_test_lmdb
I1013 01:06:38.777071 50073 data_layer.cpp:41] output data size: 100,1,28,28
I1013 01:06:38.778252 50073 net.cpp:150] Setting up mnist
I1013 01:06:38.778281 50073 net.cpp:157] Top shape: 100 1 28 28 (78400)
I1013 01:06:38.778287 50073 net.cpp:157] Top shape: 100 (100)
I1013 01:06:38.778290 50073 net.cpp:165] Memory required for data: 314000
I1013 01:06:38.778295 50073 layer_factory.hpp:77] Creating layer label_mnist_1_split
I1013 01:06:38.778312 50073 net.cpp:100] Creating Layer label_mnist_1_split
I1013 01:06:38.778316 50073 net.cpp:434] label_mnist_1_split <- label
I1013 01:06:38.778324 50073 net.cpp:408] label_mnist_1_split -> label_mnist_1_split_0
I1013 01:06:38.778331 50073 net.cpp:408] label_mnist_1_split -> label_mnist_1_split_1
I1013 01:06:38.778339 50073 net.cpp:150] Setting up label_mnist_1_split
I1013 01:06:38.778343 50073 net.cpp:157] Top shape: 100 (100)
I1013 01:06:38.778347 50073 net.cpp:157] Top shape: 100 (100)
I1013 01:06:38.778349 50073 net.cpp:165] Memory required for data: 314800
I1013 01:06:38.778352 50073 layer_factory.hpp:77] Creating layer conv1
I1013 01:06:38.778362 50073 net.cpp:100] Creating Layer conv1
I1013 01:06:38.778365 50073 net.cpp:434] conv1 <- data
I1013 01:06:38.778369 50073 net.cpp:408] conv1 -> conv1
I1013 01:06:38.778396 50073 net.cpp:150] Setting up conv1
I1013 01:06:38.778403 50073 net.cpp:157] Top shape: 100 20 24 24 (1152000)
I1013 01:06:38.778405 50073 net.cpp:165] Memory required for data: 4922800
I1013 01:06:38.778412 50073 layer_factory.hpp:77] Creating layer pool1
I1013 01:06:38.778425 50073 net.cpp:100] Creating Layer pool1
I1013 01:06:38.778434 50073 net.cpp:434] pool1 <- conv1
I1013 01:06:38.778439 50073 net.cpp:408] pool1 -> pool1
I1013 01:06:38.778446 50073 net.cpp:150] Setting up pool1
I1013 01:06:38.778450 50073 net.cpp:157] Top shape: 100 20 12 12 (288000)
I1013 01:06:38.778452 50073 net.cpp:165] Memory required for data: 6074800
I1013 01:06:38.778455 50073 layer_factory.hpp:77] Creating layer conv2
I1013 01:06:38.778465 50073 net.cpp:100] Creating Layer conv2
I1013 01:06:38.778467 50073 net.cpp:434] conv2 <- pool1
I1013 01:06:38.778471 50073 net.cpp:408] conv2 -> conv2
I1013 01:06:38.778626 50073 net.cpp:150] Setting up conv2
I1013 01:06:38.778635 50073 net.cpp:157] Top shape: 100 50 8 8 (320000)
I1013 01:06:38.778638 50073 net.cpp:165] Memory required for data: 7354800
I1013 01:06:38.778645 50073 layer_factory.hpp:77] Creating layer pool2
I1013 01:06:38.778651 50073 net.cpp:100] Creating Layer pool2
I1013 01:06:38.778656 50073 net.cpp:434] pool2 <- conv2
I1013 01:06:38.778661 50073 net.cpp:408] pool2 -> pool2
I1013 01:06:38.778667 50073 net.cpp:150] Setting up pool2
I1013 01:06:38.778671 50073 net.cpp:157] Top shape: 100 50 4 4 (80000)
I1013 01:06:38.778673 50073 net.cpp:165] Memory required for data: 7674800
I1013 01:06:38.778676 50073 layer_factory.hpp:77] Creating layer ip1
I1013 01:06:38.778681 50073 net.cpp:100] Creating Layer ip1
I1013 01:06:38.778684 50073 net.cpp:434] ip1 <- pool2
I1013 01:06:38.778690 50073 net.cpp:408] ip1 -> ip1
I1013 01:06:38.789530 50073 net.cpp:150] Setting up ip1
I1013 01:06:38.789564 50073 net.cpp:157] Top shape: 100 500 (50000)
I1013 01:06:38.789571 50073 net.cpp:165] Memory required for data: 7874800
I1013 01:06:38.789582 50073 layer_factory.hpp:77] Creating layer relu1
I1013 01:06:38.789593 50073 net.cpp:100] Creating Layer relu1
I1013 01:06:38.789598 50073 net.cpp:434] relu1 <- ip1
I1013 01:06:38.789645 50073 net.cpp:395] relu1 -> ip1 (in-place)
I1013 01:06:38.789665 50073 net.cpp:150] Setting up relu1
I1013 01:06:38.789671 50073 net.cpp:157] Top shape: 100 500 (50000)
I1013 01:06:38.789674 50073 net.cpp:165] Memory required for data: 8074800
I1013 01:06:38.789679 50073 layer_factory.hpp:77] Creating layer ip2
I1013 01:06:38.789687 50073 net.cpp:100] Creating Layer ip2
I1013 01:06:38.789691 50073 net.cpp:434] ip2 <- ip1
I1013 01:06:38.789702 50073 net.cpp:408] ip2 -> ip2
I1013 01:06:38.790145 50073 net.cpp:150] Setting up ip2
I1013 01:06:38.790169 50073 net.cpp:157] Top shape: 100 10 (1000)
I1013 01:06:38.790174 50073 net.cpp:165] Memory required for data: 8078800
I1013 01:06:38.790180 50073 layer_factory.hpp:77] Creating layer ip2_ip2_0_split
I1013 01:06:38.790189 50073 net.cpp:100] Creating Layer ip2_ip2_0_split
I1013 01:06:38.790194 50073 net.cpp:434] ip2_ip2_0_split <- ip2
I1013 01:06:38.790199 50073 net.cpp:408] ip2_ip2_0_split -> ip2_ip2_0_split_0
I1013 01:06:38.790206 50073 net.cpp:408] ip2_ip2_0_split -> ip2_ip2_0_split_1
I1013 01:06:38.790212 50073 net.cpp:150] Setting up ip2_ip2_0_split
I1013 01:06:38.790217 50073 net.cpp:157] Top shape: 100 10 (1000)
I1013 01:06:38.790220 50073 net.cpp:157] Top shape: 100 10 (1000)
I1013 01:06:38.790223 50073 net.cpp:165] Memory required for data: 8086800
I1013 01:06:38.790226 50073 layer_factory.hpp:77] Creating layer accuracy
I1013 01:06:38.790232 50073 net.cpp:100] Creating Layer accuracy
I1013 01:06:38.790235 50073 net.cpp:434] accuracy <- ip2_ip2_0_split_0
I1013 01:06:38.790240 50073 net.cpp:434] accuracy <- label_mnist_1_split_0
I1013 01:06:38.790243 50073 net.cpp:408] accuracy -> accuracy
…
